…
edgebase. It groups similar sequences based on 50% sequence identity using the CD-HIT algorithm.\nThe Prot T5 is pretrained using this database.\n\n# Reference: https://github.com/agemagician/ProtTrans/tree/master/Embedding/PyTorch/Advanced\n# Load the tokenizer\ntokenizer = T5Tokenizer.from_pretrained('Rostlab/prot_t5_xl_half_uniref50-enc', do_lower_case=False)\n\n# Load the model\nmodel = T5EncoderModel.from_pretrained(\"Rostlab/prot_t5_xl_half_uniref50-enc\").to(device)\n\n# Set the model precision based on the device\nmodel.half()\n\n\n\n\n\n\n\n\n\n\n\n\n\n\n\n\nT5EncoderModel(\n  (shared): Embedding(128, 1024)\n  (encoder): T5Stack(\n    (embed_tokens): Embedding(128, 1024)\n    (block): ModuleList(\n      (0): T5Block(\n        (layer): ModuleList(\n          (0): T5LayerSelfAttention(\n            (SelfAttention): T5Attention(\n              (q): Linear(in_features=1024, out_features=4096, bias=False)\n              (k): Linear(in_features=1024, out_features=4096, bias=False)\n              (v): Linear(in_features=1024, out_features=4096, bias=False)\n              (o): Linear(in_features=4096, out_features=1024, bias=False)\n              (relative_attention_bias): Embedding(32, 32)\n            )\n            (layer_norm): T5LayerNorm()\n            (dropout): Dropout(p=0.1, inplace=False)\n          )\n          (1): T5LayerFF(\n            (DenseReluDense): T5DenseActDense(\n              (wi): Linear(in_features=1024, out_features=16384, bias=False)\n              (wo): Linear(in_features=16384, out_features=1024, bias=False)\n              (dropout): Dropout(p=0.1, inplace=False)\n              (act): ReLU()\n            )\n            (layer_norm): T5LayerNorm()\n            (dropout): Dropout(p=0.1, inplace=False)\n          )\n        )\n      )\n      (1): T5Block(\n        (layer): ModuleList(\n          (0): T5LayerSelfAttention(\n            (SelfAttention): T5Attention(\n              (q): Linear(in_features=1024, out_features=4096, bias=False)\n              (k): Linear(in_features=1024, out_features=4096, bias=False)\n              (v): Linear(in_features=1024, out_features=4096, bias=False)\n              (o): Linear(in_features=4096, out_features=1024, bias=False)\n            )\n            (layer_norm): T5LayerNorm()\n            (dropout): Dropout(p=0.1, inplace=False)\n          )\n          (1): T5LayerFF(\n            (DenseReluDense): T5DenseActDense(\n              (wi): Linear(in_features=1024, out_features=16384, bias=False)\n              (wo): Linear(in_features=16384, out_features=1024, bias=False)\n              (dropout): Dropout(p=0.1, inplace=False)\n              (act): ReLU()\n            )\n            (layer_norm): T5LayerNorm()\n            (dropout): Dropout(p=0.1, inplace=False)\n          )\n        )\n      )\n      (2): T5Block(\n        (layer): ModuleList(\n          (0): T5LayerSelfAttention(\n            (SelfAttention): T5Attention(\n              (q): Linear(in_features=1024, out_features=4096, bias=False)\n              (k): Linear(in_features=1024, out_features=4096, bias=False)\n              (v): Linear(in_features=1024, out_features=4096, bias=False)\n              (o): Linear(in_features=4096, out_features=1024, bias=False)\n            )\n            (layer_norm): T5LayerNorm()\n            (dropout): Dropout(p=0.1, inplace=False)\n          )\n          (1): T5LayerFF(\n            (DenseReluDense): T5DenseActDense(\n              (wi): Linear(in_features=1024, out_features=16384, bias=False)\n              (wo): Linear(in_features=16384, out_features=1024, bias=False)\n              (dropout): Dropout(p=0.1, inplace=False)\n              (act): ReLU()\n            )\n            (layer_norm): T5LayerNorm()\n            (dropout): Dropout(p=0.1, inplace=False)\n          )\n        )\n      )\n      (3): T5Block(\n        (layer): ModuleList(\n          (0): T5LayerSelfAttention(\n            (SelfAttention): T5Attention(\n              (q): Linear(in_features=1024, out_features=4096, bias=False)\n              (k): Linear(in_features=1024, out_features=4096, bias=False)\n              (v): Linear(in_features=1024, out_features=4096, bias=False)\n              (o): Linear(in_features=4096, out_features=1024, bias=False)\n            )\n            (layer_norm): T5LayerNorm()\n            (dropout): Dropout(p=0.1, inplace=False)\n          )\n          (1): T5LayerFF(\n            (DenseReluDense): T5DenseActDense(\n              (wi): Linear(in_features=1024, out_features=16384, bias=False)\n              (wo): Linear(in_features=16384, out_features=1024, bias=False)\n              (dropout): Dropout(p=0.1, inplace=False)\n              (act): ReLU()\n            )\n            (layer_norm): T5LayerNorm()\n            (dropout): Dropout(p=0.1, inplace=False)\n          )\n        )\n      )\n      (4): T5Block(\n        (layer): ModuleList(\n          (0): T5LayerSelfAttention(\n            (SelfAttention): T5Attention(\n              (q): Linear(in_features=1024, out_features=4096, bias=False)\n              (k): Linear(in_features=1024, out_features=4096, bias=False)\n              (v): Linear(in_features=1024, out_features=4096, bias=False)\n              (o): Linear(in_features=4096, out_features=1024, bias=False)\n            )\n            (layer_norm): T5LayerNorm()\n            (dropout): Dropout(p=0.1, inplace=False)\n          )\n          (1): T5LayerFF(\n            (DenseReluDense): T5DenseActDense(\n              (wi): Linear(in_features=1024, out_features=16384, bias=False)\n              (wo): Linear(in_features=16384, out_features=1024, bias=False)\n              (dropout): Dropout(p=0.1, inplace=False)\n              (act): ReLU()\n            )\n            (layer_norm): T5LayerNorm()\n            (dropout): Dropout(p=0.1, inplace=False)\n          )\n        )\n      )\n      (5): T5Block(\n        (layer): ModuleList(\n          (0): T5LayerSelfAttention(\n            (SelfAttention): T5Attention(\n              (q): Linear(in_features=1024, out_features=4096, bias=False)\n              (k): Linear(in_features=1024, out_features=4096, bias=False)\n              (v): Linear(in_features=1024, out_features=4096, bias=False)\n              (o): Linear(in_features=4096, out_features=1024, bias=False)\n            )\n            (layer_norm): T5LayerNorm()\n            (dropout): Dropout(p=0.1, inplace=False)\n          )\n          (1): T5LayerFF(\n            (DenseReluDense): T5DenseActDense(\n              (wi): Linear(in_features=1024, out_features=16384, bias=False)\n              (wo): Linear(in_features=16384, out_features=1024, bias=False)\n              (dropout): Dropout(p=0.1, inplace=False)\n              (act): ReLU()\n            )\n            (layer_norm): T5LayerNorm()\n            (dropout): Dropout(p=0.1, inplace=False)\n          )\n        )\n      )\n      (6): T5Block(\n        (layer): ModuleList(\n          (0): T5LayerSelfAttention(\n            (SelfAttention): T5Attention(\n              (q): Linear(in_features=1024, out_features=4096, bias=False)\n              (k): Linear(in_features=1024, out_features=4096, bias=False)\n              (v): Linear(in_features=1024, out_features=4096, bias=False)\n              (o): Linear(in_features=4096, out_features=1024, bias=False)\n            )\n            (layer_norm): T5LayerNorm()\n            (dropout): Dropout(p=0.1, inplace=False)\n          )\n          (1): T5LayerFF(\n            (DenseReluDense): T5DenseActDense(\n              (wi): Linear(in_features=1024, out_features=16384, bias=False)\n              (wo): Linear(in_features=16384, out_features=1024, bias=False)\n              (dropout): Dropout(p=0.1, inplace=False)\n              (act): ReLU()\n            )\n            (layer_norm): T5LayerNorm()\n            (dropout): Dropout(p=0.1, inplace=False)\n          )\n        )\n      )\n      (7): T5Block(\n        (layer): ModuleList(\n          (0): T5LayerSelfAttention(\n            (SelfAttention): T5Attention(\n              (q): Linear(in_features=1024, out_features=4096, bias=False)\n              (k): Linear(in_features=1024, out_features=4096, bias=False)\n              (v): Linear(in_features=1024, out_features=4096, bias=False)\n              (o): Linear(in_features=4096, out_features=1024, bias=False)\n            )\n            (layer_norm): T5LayerNorm()\n            (dropout): Dropout(p=0.1, inplace=False)\n          )\n          (1): T5LayerFF(\n            (DenseReluDense): T5DenseActDense(\n              (wi): Linear(in_features=1024, out_features=16384, bias=False)\n              (wo): Linear(in_features=16384, out_features=1024, bias=False)\n              (dropout): Dropout(p=0.1, inplace=False)\n              (act): ReLU()\n            )\n            (layer_norm): T5LayerNorm()\n            (dropout): Dropout(p=0.1, inplace=False)\n          )\n        )\n      )\n      (8): T5Block(\n        (layer): ModuleList(\n          (0): T5LayerSelfAttention(\n            (SelfAttention): T5Attention(\n              (q): Linear(in_features=1024, out_features=4096, bias=False)\n              (k): Linear(in_features=1024, out_features=4096, bias=False)\n              (v): Linear(in_features=1024, out_features=4096, bias=False)\n              (o): Linear(in_features=4096, out_features=1024, bias=False)\n            )\n            (layer_norm): T5LayerNorm()\n            (dropout): Dropout(p=0.1, inplace=False)\n          )\n          (1): T5LayerFF(\n            (DenseReluDense): T5DenseActDense(\n              (wi): Linear(in_features=1024, out_features=16384, bias=False)\n              (wo): Linear(in_features=16384, out_features=1024, bias=False)\n              (dropout): Dropout(p=0.1, inplace=False)\n              (act): ReLU()\n            )\n            (layer_norm): T5LayerNorm()\n            (dropout): Dropout(p=0.1, inplace=False)\n          )\n        )\n      )\n      (9): T5Block(\n        (layer): ModuleList(\n          (0): T5LayerSelfAttention(\n            (SelfAttention): T5Attention(\n              (q): Linear(in_features=1024, out_features=4096, bias=False)\n              (k): Linear(in_features=1024, out_features=4096, bias=False)\n              (v): Linear(in_features=1024, out_features=4096, bias=False)\n              (o): Linear(in_features=4096, out_features=1024, bias=False)\n            )\n            (layer_norm): T5LayerNorm()\n            (dropout): Dropout(p=0.1, inplace=False)\n          )\n          (1): T5LayerFF(\n            (DenseReluDense): T5DenseActDense(\n              (wi): Linear(in_features=1024, out_features=16384, bias=False)\n              (wo): Linear(in_features=16384, out_features=1024, bias=False)\n              (dropout): Dropout(p=0.1, inplace=False)\n              (act): ReLU()\n            )\n            (layer_norm): T5LayerNorm()\n            (dropout): Dropout(p=0.1, inplace=False)\n          )\n        )\n      )\n      (10): T5Block(\n        (layer): ModuleList(\n          (0): T5LayerSelfAttention(\n            (SelfAttention): T5Attention(\n              (q): Linear(in_features=1024, out_features=4096, bias=False)\n              (k): Linear(in_features=1024, out_features=4096, bias=False)\n              (v): Linear(in_features=1024, out_features=4096, bias=False)\n              (o): Linear(in_features=4096, out_features=1024, bias=False)\n            )\n            (layer_norm): T5LayerNorm()\n            (dropout): Dropout(p=0.1, inplace=False)\n          )\n          (1): T5LayerFF(\n            (DenseReluDense): T5DenseActDense(\n              (wi): Linear(in_features=1024, out_features=16384, bias=False)\n              (wo): Linear(in_features=16384, out_features=1024, bias=False)\n              (dropout): Dropout(p=0.1, inplace=False)\n              (act): ReLU()\n            )\n            (layer_norm): T5LayerNorm()\n            (dropout): Dropout(p=0.1, inplace=False)\n          )\n        )\n      )\n      (11): T5Block(\n        (layer): ModuleList(\n          (0): T5LayerSelfAttention(\n            (SelfAttention): T5Attention(\n              (q): Linear(in_features=1024, out_features=4096, bias=False)\n              (k): Linear(in_features=1024, out_features=4096, bias=False)\n              (v): Linear(in_features=1024, out_features=4096, bias=False)\n              (o): Linear(in_features=4096, out_features=1024, bias=False)\n            )\n            (layer_norm): T5LayerNorm()\n            (dropout): Dropout(p=0.1, inplace=False)\n          )\n          (1): T5LayerFF(\n            (DenseReluDense): T5DenseActDense(\n              (wi): Linear(in_features=1024, out_features=16384, bias=False)\n              (wo): Linear(in_features=16384, out_features=1024, bias=False)\n              (dropout): Dropout(p=0.1, inplace=False)\n              (act): ReLU()\n            )\n            (layer_norm): T5LayerNorm()\n            (dropout): Dropout(p=0.1, inplace=False)\n          )\n        )\n      )\n      (12): T5Block(\n        (layer): ModuleList(\n          (0): T5LayerSelfAttention(\n            (SelfAttention): T5Attention(\n              (q): Linear(in_features=1024, out_features=4096, bias=False)\n              (k): Linear(in_features=1024, out_features=4096, bias=False)\n              (v): Linear(in_features=1024, out_features=4096, bias=False)\n              (o): Linear(in_features=4096, out_features=1024, bias=False)\n            )\n            (layer_norm): T5LayerNorm()\n            (dropout): Dropout(p=0.1, inplace=False)\n          )\n          (1): T5LayerFF(\n            (DenseReluDense): T5DenseActDense(\n              (wi): Linear(in_features=1024, out_features=16384, bias=False)\n              (wo): Linear(in_features=16384, out_features=1024, bias=False)\n              (dropout): Dropout(p=0.1, inplace=False)\n              (act): ReLU()\n            )\n            (layer_norm): T5LayerNorm()\n            (dropout): Dropout(p=0.1, inplace=False)\n          )\n        )\n      )\n      (13): T5Block(\n        (layer): ModuleList(\n          (0): T5LayerSelfAttention(\n            (SelfAttention): T5Attention(\n              (q): Linear(in_features=1024, out_features=4096, bias=False)\n              (k): Linear(in_features=1024, out_features=4096, bias=False)\n              (v): Linear(in_features=1024, out_features=4096, bias=False)\n              (o): Linear(in_features=4096, out_features=1024, bias=False)\n            )\n            (layer_norm): T5LayerNorm()\n            (dropout): Dropout(p=0.1, inplace=False)\n          )\n          (1): T5LayerFF(\n            (DenseReluDense): T5DenseActDense(\n              (wi): Linear(in_features=1024, out_features=16384, bias=False)\n              (wo): Linear(in_features=16384, out_features=1024, bias=False)\n              (dropout): Dropout(p=0.1, inplace=False)\n              (act): ReLU()\n            )\n            (layer_norm): T5LayerNorm()\n            (dropout): Dropout(p=0.1, inplace=False)\n          )\n        )\n      )\n      (14): T5Block(\n        (layer): ModuleList(\n          (0): T5LayerSelfAttention(\n            (SelfAttention): T5Attention(\n              (q): Linear(in_features=1024, out_features=4096, bias=False)\n              (k): Linear(in_features=1024, out_features=4096, bias=False)\n              (v): Linear(in_features=1024, out_features=4096, bias=False)\n              (o): Linear(in_features=4096, out_features=1024, bias=False)\n            )\n            (layer_norm): T5LayerNorm()\n            (dropout): Dropout(p=0.1, inplace=False)\n          )\n          (1): T5LayerFF(\n            (DenseReluDense): T5DenseActDense(\n              (wi): Linear(in_features=1024, out_features=16384, bias=False)\n              (wo): Linear(in_features=16384, out_features=1024, bias=False)\n              (dropout): Dropout(p=0.1, inplace=False)\n              (act): ReLU()\n            )\n            (layer_norm): T5LayerNorm()\n            (dropout): Dropout(p=0.1, inplace=False)\n          )\n        )\n      )\n      (15): T5Block(\n        (layer): ModuleList(\n          (0): T5LayerSelfAttention(\n            (SelfAttention): T5Attention(\n              (q): Linear(in_features=1024, out_features=4096, bias=False)\n              (k): Linear(in_features=1024, out_features=4096, bias=False)\n              (v): Linear(in_features=1024, out_features=4096, bias=False)\n              (o): Linear(in_features=4096, out_features=1024, bias=False)\n            )\n            (layer_norm): T5LayerNorm()\n            (dropout): Dropout(p=0.1, inplace=False)\n          )\n          (1): T5LayerFF(\n            (DenseReluDense): T5DenseActDense(\n              (wi): Linear(in_features=1024, out_features=16384, bias=False)\n              (wo): Linear(in_features=16384, out_features=1024, bias=False)\n              (dropout): Dropout(p=0.1, inplace=False)\n              (act): ReLU()\n            )\n            (layer_norm): T5LayerNorm()\n            (dropout): Dropout(p=0.1, inplace=False)\n          )\n        )\n      )\n      (16): T5Block(\n        (layer): ModuleList(\n          (0): T5LayerSelfAttention(\n            (SelfAttention): T5Attention(\n              (q): Linear(in_features=1024, out_features=4096, bias=False)\n              (k): Linear(in_features=1024, out_features=4096, bias=False)\n              (v): Linear(in_features=1024, out_features=4096, bias=False)\n              (o): Linear(in_features=4096, out_features=1024, bias=False)\n            )\n            (layer_norm): T5LayerNorm()\n            (dropout): Dropout(p=0.1, inplace=False)\n          )\n          (1): T5LayerFF(\n            (DenseReluDense): T5DenseActDense(\n              (wi): Linear(in_features=1024, out_features=16384, bias=False)\n              (wo): Linear(in_features=16384, out_features=1024, bias=False)\n              (dropout): Dropout(p=0.1, inplace=False)\n              (act): ReLU()\n            )\n            (layer_norm): T5LayerNorm()\n            (dropout): Dropout(p=0.1, inplace=False)\n          )\n        )\n      )\n      (17): T5Block(\n        (layer): ModuleList(\n          (0): T5LayerSelfAttention(\n            (SelfAttention): T5Attention(\n              (q): Linear(in_features=1024, out_features=4096, bias=False)\n              (k): Linear(in_features=1024, out_features=4096, bias=False)\n              (v): Linear(in_features=1024, out_features=4096, bias=False)\n              (o): Linear(in_features=4096, out_features=1024, bias=False)\n            )\n            (layer_norm): T5LayerNorm()\n            (dropout): Dropout(p=0.1, inplace=False)\n          )\n          (1): T5LayerFF(\n            (DenseReluDense): T5DenseActDense(\n              (wi): Linear(in_features=1024, out_features=16384, bias=False)\n              (wo): Linear(in_features=16384, out_features=1024, bias=False)\n              (dropout): Dropout(p=0.1, inplace=False)\n              (act): ReLU()\n            )\n            (layer_norm): T5LayerNorm()\n            (dropout): Dropout(p=0.1, inplace=False)\n          )\n        )\n      )\n      (18): T5Block(\n        (layer): ModuleList(\n          (0): T5LayerSelfAttention(\n            (SelfAttention): T5Attention(\n              (q): Linear(in_features=1024, out_features=4096, bias=False)\n              (k): Linear(in_features=1024, out_features=4096, bias=False)\n              (v): Linear(in_features=1024, out_features=4096, bias=False)\n              (o): Linear(in_features=4096, out_features=1024, bias=False)\n            )\n            (layer_norm): T5LayerNorm()\n            (dropout): Dropout(p=0.1, inplace=False)\n          )\n          (1): T5LayerFF(\n            (DenseReluDense): T5DenseActDense(\n              (wi): Linear(in_features=1024, out_features=16384, bias=False)\n              (wo): Linear(in_features=16384, out_features=1024, bias=False)\n              (dropout): Dropout(p=0.1, inplace=False)\n              (act): ReLU()\n            )\n            (layer_norm): T5LayerNorm()\n            (dropout): Dropout(p=0.1, inplace=False)\n          )\n        )\n      )\n      (19): T5Block(\n        (layer): ModuleList(\n          (0): T5LayerSelfAttention(\n            (SelfAttention): T5Attention(\n              (q): Linear(in_features=1024, out_features=4096, bias=False)\n              (k): Linear(in_features=1024, out_features=4096, bias=False)\n              (v): Linear(in_features=1024, out_features=4096, bias=False)\n              (o): Linear(in_features=4096, out_features=1024, bias=False)\n            )\n            (layer_norm): T5LayerNorm()\n            (dropout): Dropout(p=0.1, inplace=False)\n          )\n          (1): T5LayerFF(\n            (DenseReluDense): T5DenseActDense(\n              (wi): Linear(in_features=1024, out_features=16384, bias=False)\n              (wo): Linear(in_features=16384, out_features=1024, bias=False)\n              (dropout): Dropout(p=0.1, inplace=False)\n              (act): ReLU()\n            )\n            (layer_norm): T5LayerNorm()\n            (dropout): Dropout(p=0.1, inplace=False)\n          )\n        )\n      )\n      (20): T5Block(\n        (layer): ModuleList(\n          (0): T5LayerSelfAttention(\n            (SelfAttention): T5Attention(\n              (q): Linear(in_features=1024, out_features=4096, bias=False)\n              (k): Linear(in_features=1024, out_features=4096, bias=False)\n              (v): Linear(in_features=1024, out_features=4096, bias=False)\n              (o): Linear(in_features=4096, out_features=1024, bias=False)\n            )\n            (layer_norm): T5LayerNorm()\n            (dropout): Dropout(p=0.1, inplace=False)\n          )\n          (1): T5LayerFF(\n            (DenseReluDense): T5DenseActDense(\n              (wi): Linear(in_features=1024, out_features=16384, bias=False)\n              (wo): Linear(in_features=16384, out_features=1024, bias=False)\n              (dropout): Dropout(p=0.1, inplace=False)\n              (act): ReLU()\n            )\n            (layer_norm): T5LayerNorm()\n            (dropout): Dropout(p=0.1, inplace=False)\n          )\n        )\n      )\n      (21): T5Block(\n        (layer): ModuleList(\n          (0): T5LayerSelfAttention(\n            (SelfAttention): T5Attention(\n              (q): Linear(in_features=1024, out_features=4096, bias=False)\n              (k): Linear(in_features=1024, out_features=4096, bias=False)\n              (v): Linear(in_features=1024, out_features=4096, bias=False)\n              (o): Linear(in_features=4096, out_features=1024, bias=False)\n            )\n            (layer_norm): T5LayerNorm()\n            (dropout): Dropout(p=0.1, inplace=False)\n          )\n          (1): T5LayerFF(\n            (DenseReluDense): T5DenseActDense(\n              (wi): Linear(in_features=1024, out_features=16384, bias=False)\n              (wo): Linear(in_features=16384, out_features=1024, bias=False)\n              (dropout): Dropout(p=0.1, inplace=False)\n              (act): ReLU()\n            )\n            (layer_norm): T5LayerNorm()\n            (dropout): Dropout(p=0.1, inplace=False)\n          )\n        )\n      )\n      (22): T5Block(\n        (layer): ModuleList(\n          (0): T5LayerSelfAttention(\n            (SelfAttention): T5Attention(\n              (q): Linear(in_features=1024, out_features=4096, bias=False)\n              (k): Linear(in_features=1024, out_features=4096, bias=False)\n              (v): Linear(in_features=1024, out_features=4096, bias=False)\n              (o): Linear(in_features=4096, out_features=1024, bias=False)\n            )\n            (layer_norm): T5LayerNorm()\n            (dropout): Dropout(p=0.1, inplace=False)\n          )\n          (1): T5LayerFF(\n            (DenseReluDense): T5DenseActDense(\n              (wi): Linear(in_features=1024, out_features=16384, bias=False)\n              (wo): Linear(in_features=16384, out_features=1024, bias=False)\n              (dropout): Dropout(p=0.1, inplace=False)\n              (act): ReLU()\n            )\n            (layer_norm): T5LayerNorm()\n            (dropout): Dropout(p=0.1, inplace=False)\n          )\n        )\n      )\n      (23): T5Block(\n        (layer): ModuleList(\n          (0): T5LayerSelfAttention(\n            (SelfAttention): T5Attention(\n              (q): Linear(in_features=1024, out_features=4096, bias=False)\n              (k): Linear(in_features=1024, out_features=4096, bias=False)\n              (v): Linear(in_features=1024, out_features=4096, bias=False)\n              (o): Linear(in_features=4096, out_features=1024, bias=False)\n            )\n            (layer_norm): T5LayerNorm()\n            (dropout): Dropout(p=0.1, inplace=False)\n          )\n          (1): T5LayerFF(\n            (DenseReluDense): T5DenseActDense(\n              (wi): Linear(in_features=1024, out_features=16384, bias=False)\n              (wo): Linear(in_features=16384, out_features=1024, bias=False)\n              (dropout): Dropout(p=0.1, inplace=False)\n              (act): ReLU()\n            )\n            (layer_norm): T5LayerNorm()\n            (dropout): Dropout(p=0.1, inplace=False)\n          )\n        )\n      )\n    )\n    (final_layer_norm): T5LayerNorm()\n    (dropout): Dropout(p=0.1, inplace=False)\n  )\n)\n\n\n\ndef T5_UR_embed
…
d=True, complexity=12)\n\n\n\n\nUse UMAP to reduce dimension to 32\n\nt5_umap32 = reduce_dim(T5_feature, 'umap', 32, complexity = 10)\n\n\nt5_umap32.to_csv('t5_umap32.csv',index=False)\n\n\n\n\nT5_XL_BFD\nBFD is a database created by clustering 2.5 billion protein sequences from various sources including Uniprot/TrEMBL+Swissprot.\n\nimport gc\ngc.collect()\n\n0\n\n\n\ntokenizer = T5Tokenizer.from_pretrained('Rostlab/prot_t5_xl_bfd', do_lower_case=False)\n\nmodel = T5Model.from_pretrained(\"Rostlab/prot_t5_xl_bfd\").to(device)\n\nmodel.eval()\n\n\n\n\n\n\n\n\n\n\n\n\n\n\n\n\nT5Model(\n  (shared): Embedding(128, 1024)\n  (encoder): T5Stack(\n    (embed_tokens): Embedding(128, 1024)\n    (block): ModuleList(\n      (0): T5Block(\n        (layer): ModuleList(\n          (0): T5LayerSelfAttention(\n            (SelfAttention): T5Attention(\n              (q): Linear(in_features=1024, out_features=4096, bias=False)\n              (k): Linear(in_features=1024, out_features=4096, bias=False)\n              (v): Linear(in_features=1024, out_features=4096, bias=False)\n              (o): Linear(in_features=4096, out_features=1024, bias=False)\n              (relative_attention_bias): Embedding(32, 32)\n            )\n            (layer_norm): T5LayerNorm()\n            (dropout): Dropout(p=0.1, inplace=False)\n          )\n          (1): T5LayerFF(\n            (DenseReluDense): T5DenseActDense(\n              (wi): Linear(in_features=1024, out_features=16384, bias=False)\n              (wo): Linear(in_features=16384, out_features=1024, bias=False)\n              (dropout): Dropout(p=0.1, inplace=False)\n              (act): ReLU()\n            )\n            (layer_norm): T5LayerNorm()\n            (dropout): Dropout(p=0.1, inplace=False)\n          )\n        )\n      )\n      (1): T5Block(\n        (layer): ModuleList(\n          (0): T5LayerSelfAttention(\n            (SelfAttention): T5Attention(\n              (q): Linear(in_features=1024, out_features=4096, bias=False)\n              (k): Linear(in_features=1024, out_features=4096, bias=False)\n              (v): Linear(in_features=1024, out_features=4096, bias=False)\n              (o): Linear(in_features=4096, out_features=1024, bias=False)\n            )\n            (layer_norm): T5LayerNorm()\n            (dropout): Dropout(p=0.1, inplace=False)\n          )\n          (1): T5LayerFF(\n            (DenseReluDense): T5DenseActDense(\n              (wi): Linear(in_features=1024, out_features=16384, bias=False)\n              (wo): Linear(in_features=16384, out_features=1024, bias=False)\n              (dropout): Dropout(p=0.1, inplace=False)\n              (act): ReLU()\n            )\n            (layer_norm): T5LayerNorm()\n            (dropout): Dropout(p=0.1, inplace=False)\n          )\n        )\n      )\n      (2): T5Block(\n        (layer): ModuleList(\n          (0): T5LayerSelfAttention(\n            (SelfAttention): T5Attention(\n              (q): Linear(in_features=1024, out_features=4096, bias=False)\n              (k): Linear(in_features=1024, out_features=4096, bias=False)\n              (v): Linear(in_features=1024, out_features=4096, bias=False)\n              (o): Linear(in_features=4096, out_features=1024, bias=False)\n            )\n            (layer_norm): T5LayerNorm()\n            (dropout): Dropout(p=0.1, inplace=False)\n          )\n          (1): T5LayerFF(\n            (DenseReluDense): T5DenseActDense(\n              (wi): Linear(in_features=1024, out_features=16384, bias=False)\n              (wo): Linear(in_features=16384, out_features=1024, bias=False)\n              (dropout): Dropout(p=0.1, inplace=False)\n              (act): ReLU()\n            )\n            (layer_norm): T5LayerNorm()\n            (dropout): Dropout(p=0.1, inplace=False)\n          )\n        )\n      )\n      (3): T5Block(\n        (layer): ModuleList(\n          (0): T5LayerSelfAttention(\n            (SelfAttention): T5Attention(\n              (q): Linear(in_features=1024, out_features=4096, bias=False)\n              (k): Linear(in_features=1024, out_features=4096, bias=False)\n              (v): Linear(in_features=1024, out_features=4096, bias=False)\n              (o): Linear(in_features=4096, out_features=1024, bias=False)\n            )\n            (layer_norm): T5LayerNorm()\n            (dropout): Dropout(p=0.1, inplace=False)\n          )\n          (1): T5LayerFF(\n            (DenseReluDense): T5DenseActDense(\n              (wi): Linear(in_features=1024, out_features=16384, bias=False)\n              (wo): Linear(in_features=16384, out_features=1024, bias=False)\n              (dropout): Dropout(p=0.1, inplace=False)\n              (act): ReLU()\n            )\n            (layer_norm): T5LayerNorm()\n            (dropout): Dropout(p=0.1, inplace=False)\n          )\n        )\n      )\n      (4): T5Block(\n        (layer): ModuleList(\n          (0): T5LayerSelfAttention(\n            (SelfAttention): T5Attention(\n              (q): Linear(in_features=1024, out_features=4096, bias=False)\n              (k): Linear(in_features=1024, out_features=4096, bias=False)\n              (v): Linear(in_features=1024, out_features=4096, bias=False)\n              (o): Linear(in_features=4096, out_features=1024, bias=False)\n            )\n            (layer_norm): T5LayerNorm()\n            (dropout): Dropout(p=0.1, inplace=False)\n          )\n          (1): T5LayerFF(\n            (DenseReluDense): T5DenseActDense(\n              (wi): Linear(in_features=1024, out_features=16384, bias=False)\n              (wo): Linear(in_features=16384, out_features=1024, bias=False)\n              (dropout): Dropout(p=0.1, inplace=False)\n              (act): ReLU()\n            )\n            (layer_norm): T5LayerNorm()\n            (dropout): Dropout(p=0.1, inplace=False)\n          )\n        )\n      )\n      (5): T5Block(\n        (layer): ModuleList(\n          (0): T5LayerSelfAttention(\n            (SelfAttention): T5Attention(\n              (q): Linear(in_features=1024, out_features=4096, bias=False)\n              (k): Linear(in_features=1024, out_features=4096, bias=False)\n              (v): Linear(in_features=1024, out_features=4096, bias=False)\n              (o): Linear(in_features=4096, out_features=1024, bias=False)\n            )\n            (layer_norm): T5LayerNorm()\n            (dropout): Dropout(p=0.1, inplace=False)\n          )\n          (1): T5LayerFF(\n            (DenseReluDense): T5DenseActDense(\n              (wi): Linear(in_features=1024, out_features=16384, bias=False)\n              (wo): Linear(in_features=16384, out_features=1024, bias=False)\n              (dropout): Dropout(p=0.1, inplace=False)\n              (act): ReLU()\n            )\n            (layer_norm): T5LayerNorm()\n            (dropout): Dropout(p=0.1, inplace=False)\n          )\n        )\n      )\n      (6): T5Block(\n        (layer): ModuleList(\n          (0): T5LayerSelfAttention(\n            (SelfAttention): T5Attention(\n              (q): Linear(in_features=1024, out_features=4096, bias=False)\n              (k): Linear(in_features=1024, out_features=4096, bias=False)\n              (v): Linear(in_features=1024, out_features=4096, bias=False)\n              (o): Linear(in_features=4096, out_features=1024, bias=False)\n            )\n            (layer_norm): T5LayerNorm()\n            (dropout): Dropout(p=0.1, inplace=False)\n          )\n          (1): T5LayerFF(\n            (DenseReluDense): T5DenseActDense(\n              (wi): Linear(in_features=1024, out_features=16384, bias=False)\n              (wo): Linear(in_features=16384, out_features=1024, bias=False)\n              (dropout): Dropout(p=0.1, inplace=False)\n              (act): ReLU()\n            )\n            (layer_norm): T5LayerNorm()\n            (dropout): Dropout(p=0.1, inplace=False)\n          )\n        )\n      )\n      (7): T5Block(\n        (layer): ModuleList(\n          (0): T5LayerSelfAttention(\n            (SelfAttention): T5Attention(\n              (q): Linear(in_features=1024, out_features=4096, bias=False)\n              (k): Linear(in_features=1024, out_features=4096, bias=False)\n              (v): Linear(in_features=1024, out_features=4096, bias=False)\n              (o): Linear(in_features=4096, out_features=1024, bias=False)\n            )\n            (layer_norm): T5LayerNorm()\n            (dropout): Dropout(p=0.1, inplace=False)\n          )\n          (1): T5LayerFF(\n            (DenseReluDense): T5DenseActDense(\n              (wi): Linear(in_features=1024, out_features=16384, bias=False)\n              (wo): Linear(in_features=16384, out_features=1024, bias=False)\n              (dropout): Dropout(p=0.1, inplace=False)\n              (act): ReLU()\n            )\n            (layer_norm): T5LayerNorm()\n            (dropout): Dropout(p=0.1, inplace=False)\n          )\n        )\n      )\n      (8): T5Block(\n        (layer): ModuleList(\n          (0): T5LayerSelfAttention(\n            (SelfAttention): T5Attention(\n              (q): Linear(in_features=1024, out_features=4096, bias=False)\n              (k): Linear(in_features=1024, out_features=4096, bias=False)\n              (v): Linear(in_features=1024, out_features=4096, bias=False)\n              (o): Linear(in_features=4096, out_features=1024, bias=False)\n            )\n            (layer_norm): T5LayerNorm()\n            (dropout): Dropout(p=0.1, inplace=False)\n          )\n          (1): T5LayerFF(\n            (DenseReluDense): T5DenseActDense(\n              (wi): Linear(in_features=1024, out_features=16384, bias=False)\n              (wo): Linear(in_features=16384, out_features=1024, bias=False)\n              (dropout): Dropout(p=0.1, inplace=False)\n              (act): ReLU()\n            )\n            (layer_norm): T5LayerNorm()\n            (dropout): Dropout(p=0.1, inplace=False)\n          )\n        )\n      )\n      (9): T5Block(\n        (layer): ModuleList(\n          (0): T5LayerSelfAttention(\n            (SelfAttention): T5Attention(\n              (q): Linear(in_features=1024, out_features=4096, bias=False)\n              (k): Linear(in_features=1024, out_features=4096, bias=False)\n              (v): Linear(in_features=1024, out_features=4096, bias=False)\n              (o): Linear(in_features=4096, out_features=1024, bias=False)\n            )\n            (layer_norm): T5LayerNorm()\n            (dropout): Dropout(p=0.1, inplace=False)\n          )\n          (1): T5LayerFF(\n            (DenseReluDense): T5DenseActDense(\n              (wi): Linear(in_features=1024, out_features=16384, bias=False)\n              (wo): Linear(in_features=16384, out_features=1024, bias=False)\n              (dropout): Dropout(p=0.1, inplace=False)\n              (act): ReLU()\n            )\n            (layer_norm): T5LayerNorm()\n            (dropout): Dropout(p=0.1, inplace=False)\n          )\n        )\n      )\n      (10): T5Block(\n        (layer): ModuleList(\n          (0): T5LayerSelfAttention(\n            (SelfAttention): T5Attention(\n              (q): Linear(in_features=1024, out_features=4096, bias=False)\n              (k): Linear(in_features=1024, out_features=4096, bias=False)\n              (v): Linear(in_features=1024, out_features=4096, bias=False)\n              (o): Linear(in_features=4096, out_features=1024, bias=False)\n            )\n            (layer_norm): T5LayerNorm()\n            (dropout): Dropout(p=0.1, inplace=False)\n          )\n          (1): T5LayerFF(\n            (DenseReluDense): T5DenseActDense(\n              (wi): Linear(in_features=1024, out_features=16384, bias=False)\n              (wo): Linear(in_features=16384, out_features=1024, bias=False)\n              (dropout): Dropout(p=0.1, inplace=False)\n              (act): ReLU()\n            )\n            (layer_norm): T5LayerNorm()\n            (dropout): Dropout(p=0.1, inplace=False)\n          )\n        )\n      )\n      (11): T5Block(\n        (layer): ModuleList(\n          (0): T5LayerSelfAttention(\n            (SelfAttention): T5Attention(\n              (q): Linear(in_features=1024, out_features=4096, bias=False)\n              (k): Linear(in_features=1024, out_features=4096, bias=False)\n              (v): Linear(in_features=1024, out_features=4096, bias=False)\n              (o): Linear(in_features=4096, out_features=1024, bias=False)\n            )\n            (layer_norm): T5LayerNorm()\n            (dropout): Dropout(p=0.1, inplace=False)\n          )\n          (1): T5LayerFF(\n            (DenseReluDense): T5DenseActDense(\n              (wi): Linear(in_features=1024, out_features=16384, bias=False)\n              (wo): Linear(in_features=16384, out_features=1024, bias=False)\n              (dropout): Dropout(p=0.1, inplace=False)\n              (act): ReLU()\n            )\n            (layer_norm): T5LayerNorm()\n            (dropout): Dropout(p=0.1, inplace=False)\n          )\n        )\n      )\n      (12): T5Block(\n        (layer): ModuleList(\n          (0): T5LayerSelfAttention(\n            (SelfAttention): T5Attention(\n              (q): Linear(in_features=1024, out_features=4096, bias=False)\n              (k): Linear(in_features=1024, out_features=4096, bias=False)\n              (v): Linear(in_features=1024, out_features=4096, bias=False)\n              (o): Linear(in_features=4096, out_features=1024, bias=False)\n            )\n            (layer_norm): T5LayerNorm()\n            (dropout): Dropout(p=0.1, inplace=False)\n          )\n          (1): T5LayerFF(\n            (DenseReluDense): T5DenseActDense(\n              (wi): Linear(in_features=1024, out_features=16384, bias=False)\n              (wo): Linear(in_features=16384, out_features=1024, bias=False)\n              (dropout): Dropout(p=0.1, inplace=False)\n              (act): ReLU()\n            )\n            (layer_norm): T5LayerNorm()\n            (dropout): Dropout(p=0.1, inplace=False)\n          )\n        )\n      )\n      (13): T5Block(\n        (layer): ModuleList(\n          (0): T5LayerSelfAttention(\n            (SelfAttention): T5Attention(\n              (q): Linear(in_features=1024, out_features=4096, bias=False)\n              (k): Linear(in_features=1024, out_features=4096, bias=False)\n              (v): Linear(in_features=1024, out_features=4096, bias=False)\n              (o): Linear(in_features=4096, out_features=1024, bias=False)\n            )\n            (layer_norm): T5LayerNorm()\n            (dropout): Dropout(p=0.1, inplace=False)\n          )\n          (1): T5LayerFF(\n            (DenseReluDense): T5DenseActDense(\n              (wi): Linear(in_features=1024, out_features=16384, bias=False)\n              (wo): Linear(in_features=16384, out_features=1024, bias=False)\n              (dropout): Dropout(p=0.1, inplace=False)\n              (act): ReLU()\n            )\n            (layer_norm): T5LayerNorm()\n            (dropout): Dropout(p=0.1, inplace=False)\n          )\n        )\n      )\n      (14): T5Block(\n        (layer): ModuleList(\n          (0): T5LayerSelfAttention(\n            (SelfAttention): T5Attention(\n              (q): Linear(in_features=1024, out_features=4096, bias=False)\n              (k): Linear(in_features=1024, out_features=4096, bias=False)\n              (v): Linear(in_features=1024, out_features=4096, bias=False)\n              (o): Linear(in_features=4096, out_features=1024, bias=False)\n            )\n            (layer_norm): T5LayerNorm()\n            (dropout): Dropout(p=0.1, inplace=False)\n          )\n          (1): T5LayerFF(\n            (DenseReluDense): T5DenseActDense(\n              (wi): Linear(in_features=1024, out_features=16384, bias=False)\n              (wo): Linear(in_features=16384, out_features=1024, bias=False)\n              (dropout): Dropout(p=0.1, inplace=False)\n              (act): ReLU()\n            )\n            (layer_norm): T5LayerNorm()\n            (dropout): Dropout(p=0.1, inplace=False)\n          )\n        )\n      )\n      (15): T5Block(\n        (layer): ModuleList(\n          (0): T5LayerSelfAttention(\n            (SelfAttention): T5Attention(\n              (q): Linear(in_features=1024, out_features=4096, bias=False)\n              (k): Linear(in_features=1024, out_features=4096, bias=False)\n              (v): Linear(in_features=1024, out_features=4096, bias=False)\n              (o): Linear(in_features=4096, out_features=1024, bias=False)\n            )\n            (layer_norm): T5LayerNorm()\n            (dropout): Dropout(p=0.1, inplace=False)\n          )\n          (1): T5LayerFF(\n            (DenseReluDense): T5DenseActDense(\n              (wi): Linear(in_features=1024, out_features=16384, bias=False)\n              (wo): Linear(in_features=16384, out_features=1024, bias=False)\n              (dropout): Dropout(p=0.1, inplace=False)\n              (act): ReLU()\n            )\n            (layer_norm): T5LayerNorm()\n            (dropout): Dropout(p=0.1, inplace=False)\n          )\n        )\n      )\n      (16): T5Block(\n        (layer): ModuleList(\n          (0): T5LayerSelfAttention(\n            (SelfAttention): T5Attention(\n              (q): Linear(in_features=1024, out_features=4096, bias=False)\n              (k): Linear(in_features=1024, out_features=4096, bias=False)\n              (v): Linear(in_features=1024, out_features=4096, bias=False)\n              (o): Linear(in_features=4096, out_features=1024, bias=False)\n            )\n            (layer_norm): T5LayerNorm()\n            (dropout): Dropout(p=0.1, inplace=False)\n          )\n          (1): T5LayerFF(\n            (DenseReluDense): T5DenseActDense(\n              (wi): Linear(in_features=1024, out_features=16384, bias=False)\n              (wo): Linear(in_features=16384, out_features=1024, bias=False)\n              (dropout): Dropout(p=0.1, inplace=False)\n              (act): ReLU()\n            )\n            (layer_norm): T5LayerNorm()\n            (dropout): Dropout(p=0.1, inplace=False)\n          )\n        )\n      )\n      (17): T5Block(\n        (layer): ModuleList(\n          (0): T5LayerSelfAttention(\n            (SelfAttention): T5Attention(\n              (q): Linear(in_features=1024, out_features=4096, bias=False)\n              (k): Linear(in_features=1024, out_features=4096, bias=False)\n              (v): Linear(in_features=1024, out_features=4096, bias=False)\n              (o): Linear(in_features=4096, out_features=1024, bias=False)\n            )\n            (layer_norm): T5LayerNorm()\n            (dropout): Dropout(p=0.1, inplace=False)\n          )\n          (1): T5LayerFF(\n            (DenseReluDense): T5DenseActDense(\n              (wi): Linear(in_features=1024, out_features=16384, bias=False)\n              (wo): Linear(in_features=16384, out_features=1024, bias=False)\n              (dropout): Dropout(p=0.1, inplace=False)\n              (act): ReLU()\n            )\n            (layer_norm): T5LayerNorm()\n            (dropout): Dropout(p=0.1, inplace=False)\n          )\n        )\n      )\n      (18): T5Block(\n        (layer): ModuleList(\n          (0): T5LayerSelfAttention(\n            (SelfAttention): T5Attention(\n              (q): Linear(in_features=1024, out_features=4096, bias=False)\n              (k): Linear(in_features=1024, out_features=4096, bias=False)\n              (v): Linear(in_features=1024, out_features=4096, bias=False)\n              (o): Linear(in_features=4096, out_features=1024, bias=False)\n            )\n            (layer_norm): T5LayerNorm()\n            (dropout): Dropout(p=0.1, inplace=False)\n          )\n          (1): T5LayerFF(\n            (DenseReluDense): T5DenseActDense(\n              (wi): Linear(in_features=1024, out_features=16384, bias=False)\n              (wo): Linear(in_features=16384, out_features=1024, bias=False)\n              (dropout): Dropout(p=0.1, inplace=False)\n              (act): ReLU()\n            )\n            (layer_norm): T5LayerNorm()\n            (dropout): Dropout(p=0.1, inplace=False)\n          )\n        )\n      )\n      (19): T5Block(\n        (layer): ModuleList(\n          (0): T5LayerSelfAttention(\n            (SelfAttention): T5Attention(\n              (q): Linear(in_features=1024, out_features=4096, bias=False)\n              (k): Linear(in_features=1024, out_features=4096, bias=False)\n              (v): Linear(in_features=1024, out_features=4096, bias=False)\n              (o): Linear(in_features=4096, out_features=1024, bias=False)\n            )\n            (layer_norm): T5LayerNorm()\n            (dropout): Dropout(p=0.1, inplace=False)\n          )\n          (1): T5LayerFF(\n            (DenseReluDense): T5DenseActDense(\n              (wi): Linear(in_features=1024, out_features=16384, bias=False)\n              (wo): Linear(in_features=16384, out_features=1024, bias=False)\n              (dropout): Dropout(p=0.1, inplace=False)\n              (act): ReLU()\n            )\n            (layer_norm): T5LayerNorm()\n            (dropout): Dropout(p=0.1, inplace=False)\n          )\n        )\n      )\n      (20): T5Block(\n        (layer): ModuleList(\n          (0): T5LayerSelfAttention(\n            (SelfAttention): T5Attention(\n              (q): Linear(in_features=1024, out_features=4096, bias=False)\n              (k): Linear(in_features=1024, out_features=4096, bias=False)\n              (v): Linear(in_features=1024, out_features=4096, bias=False)\n              (o): Linear(in_features=4096, out_features=1024, bias=False)\n            )\n            (layer_norm): T5LayerNorm()\n            (dropout): Dropout(p=0.1, inplace=False)\n          )\n          (1): T5LayerFF(\n            (DenseReluDense): T5DenseActDense(\n              (wi): Linear(in_features=1024, out_features=16384, bias=False)\n              (wo): Linear(in_features=16384, out_features=1024, bias=False)\n              (dropout): Dropout(p=0.1, inplace=False)\n              (act): ReLU()\n            )\n            (layer_norm): T5LayerNorm()\n            (dropout): Dropout(p=0.1, inplace=False)\n          )\n        )\n      )\n      (21): T5Block(\n        (layer): ModuleList(\n          (0): T5LayerSelfAttention(\n            (SelfAttention): T5Attention(\n              (q): Linear(in_features=1024, out_features=4096, bias=False)\n              (k): Linear(in_features=1024, out_features=4096, bias=False)\n              (v): Linear(in_features=1024, out_features=4096, bias=False)\n              (o): Linear(in_features=4096, out_features=1024, bias=False)\n            )\n            (layer_norm): T5LayerNorm()\n            (dropout): Dropout(p=0.1, inplace=False)\n          )\n          (1): T5LayerFF(\n            (DenseReluDense): T5DenseActDense(\n              (wi): Linear(in_features=1024, out_features=16384, bias=False)\n              (wo): Linear(in_features=16384, out_features=1024, bias=False)\n              (dropout): Dropout(p=0.1, inplace=False)\n              (act): ReLU()\n            )\n            (layer_norm): T5LayerNorm()\n            (dropout): Dropout(p=0.1, inplace=False)\n          )\n        )\n      )\n      (22): T5Block(\n        (layer): ModuleList(\n          (0): T5LayerSelfAttention(\n            (SelfAttention): T5Attention(\n              (q): Linear(in_features=1024, out_features=4096, bias=False)\n              (k): Linear(in_features=1024, out_features=4096, bias=False)\n              (v): Linear(in_features=1024, out_features=4096, bias=False)\n              (o): Linear(in_features=4096, out_features=1024, bias=False)\n            )\n            (layer_norm): T5LayerNorm()\n            (dropout): Dropout(p=0.1, inplace=False)\n          )\n          (1): T5LayerFF(\n            (DenseReluDense): T5DenseActDense(\n              (wi): Linear(in_features=1024, out_features=16384, bias=False)\n              (wo): Linear(in_features=16384, out_features=1024, bias=False)\n              (dropout): Dropout(p=0.1, inplace=False)\n              (act): ReLU()\n            )\n            (layer_norm): T5LayerNorm()\n            (dropout): Dropout(p=0.1, inplace=False)\n          )\n        )\n      )\n      (23): T5Block(\n        (layer): ModuleList(\n          (0): T5LayerSelfAttention(\n            (SelfAttention): T5Attention(\n              (q): Linear(in_features=1024, out_features=4096, bias=False)\n              (k): Linear(in_features=1024, out_features=4096, bias=False)\n              (v): Linear(in_features=1024, out_features=4096, bias=False)\n              (o): Linear(in_features=4096, out_features=1024, bias=False)\n            )\n            (layer_norm): T5LayerNorm()\n            (dropout): Dropout(p=0.1, inplace=False)\n          )\n          (1): T5LayerFF(\n            (DenseReluDense): T5DenseActDense(\n              (wi): Linear(in_features=1024, out_features=16384, bias=False)\n              (wo): Linear(in_features=16384, out_features=1024, bias=False)\n              (dropout): Dropout(p=0.1, inplace=False)\n              (act): ReLU()\n            )\n            (layer_norm): T5LayerNorm()\n            (dropout): Dropout(p=0.1, inplace=False)\n          )\n        )\n      )\n    )\n    (final_layer_norm): T5LayerNorm()\n    (dropout): Dropout(p=0.1, inplace=False)\n  )\n  (decoder): T5Stack(\n    (embed_tokens): Embedding(128, 1024)\n    (block): ModuleList(\n      (0): T5Block(\n        (layer): ModuleList(\n          (0): T5LayerSelfAttention(\n            (SelfAttention): T5Attention(\n              (q): Linear(in_features=1024, out_features=4096, bias=False)\n              (k): Linear(in_features=1024, out_features=4096, bias=False)\n              (v): Linear(in_features=1024, out_features=4096, bias=False)\n              (o): Linear(in_features=4096, out_features=1024, bias=False)\n              (relative_attention_bias): Embedding(32, 32)\n            )\n            (layer_norm): T5LayerNorm()\n            (dropout): Dropout(p=0.1, inplace=False)\n          )\n          (1): T5LayerCrossAttention(\n            (EncDecAttention): T5Attention(\n              (q): Linear(in_features=1024, out_features=4096, bias=False)\n              (k): Linear(in_features=1024, out_features=4096, bias=False)\n              (v): Linear(in_features=1024, out_features=4096, bias=False)\n              (o): Linear(in_features=4096, out_features=1024, bias=False)\n            )\n            (layer_norm): T5LayerNorm()\n            (dropout): Dropout(p=0.1, inplace=False)\n          )\n          (2): T5LayerFF(\n            (DenseReluDense): T5DenseActDense(\n              (wi): Linear(in_features=1024, out_features=16384, bias=False)\n              (wo): Linear(in_features=16384, out_features=1024, bias=False)\n              (dropout): Dropout(p=0.1, inplace=False)\n              (act): ReLU()\n            )\n            (layer_norm): T5LayerNorm()\n            (dropout): Dropout(p=0.1, inplace=False)\n          )\n        )\n      )\n      (1): T5Block(\n        (layer): ModuleList(\n          (0): T5LayerSelfAttention(\n            (SelfAttention): T5Attention(\n              (q): Linear(in_features=1024, out_features=4096, bias=False)\n              (k): Linear(in_features=1024, out_features=4096, bias=False)\n              (v): Linear(in_features=1024, out_features=4096, bias=False)\n              (o): Linear(in_features=4096, out_features=1024, bias=False)\n            )\n            (layer_norm): T5LayerNorm()\n            (dropout): Dropout(p=0.1, inplace=False)\n          )\n          (1): T5LayerCrossAttention(\n            (EncDecAttention): T5Attention(\n              (q): Linear(in_features=1024, out_features=4096, bias=False)\n              (k): Linear(in_features=1024, out_features=4096, bias=False)\n              (v): Linear(in_features=1024, out_features=4096, bias=False)\n              (o): Linear(in_features=4096, out_features=1024, bias=False)\n            )\n            (layer_norm): T5LayerNorm()\n            (dropout): Dropout(p=0.1, inplace=False)\n          )\n          (2): T5LayerFF(\n            (DenseReluDense): T5DenseActDense(\n              (wi): Linear(in_features=1024, out_features=16384, bias=False)\n              (wo): Linear(in_features=16384, out_features=1024, bias=False)\n              (dropout): Dropout(p=0.1, inplace=False)\n              (act): ReLU()\n            )\n            (layer_norm): T5LayerNorm()\n            (dropout): Dropout(p=0.1, inplace=False)\n          )\n        )\n      )\n      (2): T5Block(\n        (layer): ModuleList(\n          (0): T5LayerSelfAttention(\n            (SelfAttention): T5Attention(\n              (q): Linear(in_features=1024, out_features=4096, bias=False)\n              (k): Linear(in_features=1024, out_features=4096, bias=False)\n              (v): Linear(in_features=1024, out_features=4096, bias=False)\n              (o): Linear(in_features=4096, out_features=1024, bias=False)\n            )\n            (layer_norm): T5LayerNorm()\n            (dropout): Dropout(p=0.1, inplace=False)\n          )\n          (1): T5LayerCrossAttention(\n            (EncDecAttention): T5Attention(\n              (q): Linear(in_features=1024, out_features=4096, bias=False)\n              (k): Linear(in_features=1024, out_features=4096, bias=False)\n              (v): Linear(in_features=1024, out_features=4096, bias=False)\n              (o): Linear(in_features=4096, out_features=1024, bias=False)\n            )\n            (layer_norm): T5LayerNorm()\n            (dropout): Dropout(p=0.1, inplace=False)\n          )\n          (2): T5LayerFF(\n            (DenseReluDense): T5DenseActDense(\n              (wi): Linear(in_features=1024, out_features=16384, bias=False)\n              (wo): Linear(in_features=16384, out_features=1024, bias=False)\n              (dropout): Dropout(p=0.1, inplace=False)\n              (act): ReLU()\n            )\n            (layer_norm): T5LayerNorm()\n            (dropout): Dropout(p=0.1, inplace=False)\n          )\n        )\n      )\n      (3): T5Block(\n        (layer): ModuleList(\n          (0): T5LayerSelfAttention(\n            (SelfAttention): T5Attention(\n              (q): Linear(in_features=1024, out_features=4096, bias=False)\n              (k): Linear(in_features=1024, out_features=4096, bias=False)\n              (v): Linear(in_features=1024, out_features=4096, bias=False)\n              (o): Linear(in_features=4096, out_features=1024, bias=False)\n            )\n            (layer_norm): T5LayerNorm()\n            (dropout): Dropout(p=0.1, inplace=False)\n          )\n          (1): T5LayerCrossAttention(\n            (EncDecAttention): T5Attention(\n              (q): Linear(in_features=1024, out_features=4096, bias=False)\n              (k): Linear(in_features=1024, out_features=4096, bias=False)\n              (v): Linear(in_features=1024, out_features=4096, bias=False)\n              (o): Linear(in_features=4096, out_features=1024, bias=False)\n            )\n            (layer_norm): T5LayerNorm()\n            (dropout): Dropout(p=0.1, inplace=False)\n          )\n          (2): T5LayerFF(\n            (DenseReluDense): T5DenseActDense(\n              (wi): Linear(in_features=1024, out_features=16384, bias=False)\n              (wo): Linear(in_features=16384, out_features=1024, bias=False)\n              (dropout): Dropout(p=0.1, inplace=False)\n              (act): ReLU()\n            )\n            (layer_norm): T5LayerNorm()\n            (dropout): Dropout(p=0.1, inplace=False)\n          )\n        )\n      )\n      (4): T5Block(\n        (layer): ModuleList(\n          (0): T5LayerSelfAttention(\n            (SelfAttention): T5Attention(\n              (q): Linear(in_features=1024, out_features=4096, bias=False)\n              (k): Linear(in_features=1024, out_features=4096, bias=False)\n              (v): Linear(in_features=1024, out_features=4096, bias=False)\n              (o): Linear(in_features=4096, out_features=1024, bias=False)\n            )\n            (layer_norm): T5LayerNorm()\n            (dropout): Dropout(p=0.1, inplace=False)\n          )\n          (1): T5LayerCrossAttention(\n            (EncDecAttention): T5Attention(\n              (q): Linear(in_features=1024, out_features=4096, bias=False)\n              (k): Linear(in_features=1024, out_features=4096, bias=False)\n              (v): Linear(in_features=1024, out_features=4096, bias=False)\n              (o): Linear(in_features=4096, out_features=1024, bias=False)\n            )\n            (layer_norm): T5LayerNorm()\n            (dropout): Dropout(p=0.1, inplace=False)\n          )\n          (2): T5LayerFF(\n            (DenseReluDense): T5DenseActDense(\n              (wi): Linear(in_features=1024, out_features=16384, bias=False)\n              (wo): Linear(in_features=16384, out_features=1024, bias=False)\n              (dropout): Dropout(p=0.1, inplace=False)\n              (act): ReLU()\n            )\n            (layer_norm): T5LayerNorm()\n            (dropout): Dropout(p=0.1, inplace=False)\n          )\n        )\n      )\n      (5): T5Block(\n        (layer): ModuleList(\n          (0): T5LayerSelfAttention(\n            (SelfAttention): T5Attention(\n              (q): Linear(in_features=1024, out_features=4096, bias=False)\n              (k): Linear(in_features=1024, out_features=4096, bias=False)\n              (v): Linear(in_features=1024, out_features=4096, bias=False)\n              (o): Linear(in_features=4096, out_features=1024, bias=False)\n            )\n            (layer_norm): T5LayerNorm()\n            (dropout): Dropout(p=0.1, inplace=False)\n          )\n          (1): T5LayerCrossAttention(\n            (EncDecAttention): T5Attention(\n              (q): Linear(in_features=1024, out_features=4096, bias=False)\n              (k): Linear(in_features=1024, out_features=4096, bias=False)\n              (v): Linear(in_features=1024, out_features=4096, bias=False)\n              (o): Linear(in_features=4096, out_features=1024, bias=False)\n            )\n            (layer_norm): T5LayerNorm()\n            (dropout): Dropout(p=0.1, inplace=False)\n          )\n          (2): T5LayerFF(\n            (DenseReluDense): T5DenseActDense(\n              (wi): Linear(in_features=1024, out_features=16384, bias=False)\n              (wo): Linear(in_features=16384, out_features=1024, bias=False)\n              (dropout): Dropout(p=0.1, inplace=False)\n              (act): ReLU()\n            )\n            (layer_norm): T5LayerNorm()\n            (dropout): Dropout(p=0.1, inplace=False)\n          )\n        )\n      )\n      (6): T5Block(\n        (layer): ModuleList(\n          (0): T5LayerSelfAttention(\n            (SelfAttention): T5Attention(\n              (q): Linear(in_features=1024, out_features=4096, bias=False)\n              (k): Linear(in_features=1024, out_features=4096, bias=False)\n              (v): Linear(in_features=1024, out_features=4096, bias=False)\n              (o): Linear(in_features=4096, out_features=1024, bias=False)\n            )\n            (layer_norm): T5LayerNorm()\n            (dropout): Dropout(p=0.1, inplace=False)\n          )\n          (1): T5LayerCrossAttention(\n            (EncDecAttention): T5Attention(\n              (q): Linear(in_features=1024, out_features=4096, bias=False)\n              (k): Linear(in_features=1024, out_features=4096, bias=False)\n              (v): Linear(in_features=1024, out_features=4096, bias=False)\n              (o): Linear(in_features=4096, out_features=1024, bias=False)\n            )\n            (layer_norm): T5LayerNorm()\n            (dropout): Dropout(p=0.1, inplace=False)\n          )\n          (2): T5LayerFF(\n            (DenseReluDense): T5DenseActDense(\n              (wi): Linear(in_features=1024, out_features=16384, bias=False)\n              (wo): Linear(in_features=16384, out_features=1024, bias=False)\n              (dropout): Dropout(p=0.1, inplace=False)\n              (act): ReLU()\n            )\n            (layer_norm): T5LayerNorm()\n            (dropout): Dropout(p=0.1, inplace=False)\n          )\n        )\n      )\n      (7): T5Block(\n        (layer): ModuleList(\n          (0): T5LayerSelfAttention(\n            (SelfAttention): T5Attention(\n              (q): Linear(in_features=1024, out_features=4096, bias=False)\n              (k): Linear(in_features=1024, out_features=4096, bias=False)\n              (v): Linear(in_features=1024, out_features=4096, bias=False)\n              (o): Linear(in_features=4096, out_features=1024, bias=False)\n            )\n            (layer_norm): T5LayerNorm()\n            (dropout): Dropout(p=0.1, inplace=False)\n          )\n          (1): T5LayerCrossAttention(\n            (EncDecAttention): T5Attention(\n              (q): Linear(in_features=1024, out_features=4096, bias=False)\n              (k): Linear(in_features=1024, out_features=4096, bias=False)\n              (v): Linear(in_features=1024, out_features=4096, bias=False)\n              (o): Linear(in_features=4096, out_features=1024, bias=False)\n            )\n            (layer_norm): T5LayerNorm()\n            (dropout): Dropout(p=0.1, inplace=False)\n          )\n          (2): T5LayerFF(\n            (DenseReluDense): T5DenseActDense(\n              (wi): Linear(in_features=1024, out_features=16384, bias=False)\n              (wo): Linear(in_features=16384, out_features=1024, bias=False)\n              (dropout): Dropout(p=0.1, inplace=False)\n              (act): ReLU()\n            )\n            (layer_norm): T5LayerNorm()\n            (dropout): Dropout(p=0.1, inplace=False)\n          )\n        )\n      )\n      (8): T5Block(\n        (layer): ModuleList(\n          (0): T5LayerSelfAttention(\n            (SelfAttention): T5Attention(\n              (q): Linear(in_features=1024, out_features=4096, bias=False)\n              (k): Linear(in_features=1024, out_features=4096, bias=False)\n              (v): Linear(in_features=1024, out_features=4096, bias=False)\n              (o): Linear(in_features=4096, out_features=1024, bias=False)\n            )\n            (layer_norm): T5LayerNorm()\n            (dropout): Dropout(p=0.1, inplace=False)\n          )\n          (1): T5LayerCrossAttention(\n            (EncDecAttention): T5Attention(\n              (q): Linear(in_features=1024, out_features=4096, bias=False)\n              (k): Linear(in_features=1024, out_features=4096, bias=False)\n              (v): Linear(in_features=1024, out_features=4096, bias=False)\n              (o): Linear(in_features=4096, out_features=1024, bias=False)\n            )\n            (layer_norm): T5LayerNorm()\n            (dropout): Dropout(p=0.1, inplace=False)\n          )\n          (2): T5LayerFF(\n            (DenseReluDense): T5DenseActDense(\n              (wi): Linear(in_features=1024, out_features=16384, bias=False)\n              (wo): Linear(in_features=16384, out_features=1024, bias=False)\n              (dropout): Dropout(p=0.1, inplace=False)\n              (act): ReLU()\n            )\n            (layer_norm): T5LayerNorm()\n            (dropout): Dropout(p=0.1, inplace=False)\n          )\n        )\n      )\n      (9): T5Block(\n        (layer): ModuleList(\n          (0): T5LayerSelfAttention(\n            (SelfAttention): T5Attention(\n              (q): Linear(in_features=1024, out_features=4096, bias=False)\n              (k): Linear(in_features=1024, out_features=4096, bias=False)\n              (v): Linear(in_features=1024, out_features=4096, bias=False)\n              (o): Linear(in_features=4096, out_features=1024, bias=False)\n            )\n            (layer_norm): T5LayerNorm()\n            (dropout): Dropout(p=0.1, inplace=False)\n          )\n          (1): T5LayerCrossAttention(\n            (EncDecAttention): T5Attention(\n              (q): Linear(in_features=1024, out_features=4096, bias=False)\n              (k): Linear(in_features=1024, out_features=4096, bias=False)\n              (v): Linear(in_features=1024, out_features=4096, bias=False)\n              (o): Linear(in_features=4096, out_features=1024, bias=False)\n            )\n            (layer_norm): T5LayerNorm()\n            (dropout): Dropout(p=0.1, inplace=False)\n          )\n          (2): T5LayerFF(\n            (DenseReluDense): T5DenseActDense(\n              (wi): Linear(in_features=1024, out_features=16384, bias=False)\n              (wo): Linear(in_features=16384, out_features=1024, bias=False)\n              (dropout): Dropout(p=0.1, inplace=False)\n              (act): ReLU()\n            )\n            (layer_norm): T5LayerNorm()\n            (dropout): Dropout(p=0.1, inplace=False)\n          )\n        )\n      )\n      (10): T5Block(\n        (layer): ModuleList(\n          (0): T5LayerSelfAttention(\n            (SelfAttention): T5Attention(\n              (q): Linear(in_features=1024, out_features=4096, bias=False)\n              (k): Linear(in_features=1024, out_features=4096, bias=False)\n              (v): Linear(in_features=1024, out_features=4096, bias=False)\n              (o): Linear(in_features=4096, out_features=1024, bias=False)\n            )\n            (layer_norm): T5LayerNorm()\n            (dropout): Dropout(p=0.1, inplace=False)\n          )\n          (1): T5LayerCrossAttention(\n            (EncDecAttention): T5Attention(\n              (q): Linear(in_features=1024, out_features=4096, bias=False)\n              (k): Linear(in_features=1024, out_features=4096, bias=False)\n              (v): Linear(in_features=1024, out_features=4096, bias=False)\n              (o): Linear(in_features=4096, out_features=1024, bias=False)\n            )\n            (layer_norm): T5LayerNorm()\n            (dropout): Dropout(p=0.1, inplace=False)\n          )\n          (2): T5LayerFF(\n            (DenseReluDense): T5DenseActDense(\n              (wi): Linear(in_features=1024, out_features=16384, bias=False)\n              (wo): Linear(in_features=16384, out_features=1024, bias=False)\n              (dropout): Dropout(p=0.1, inplace=False)\n              (act): ReLU()\n            )\n            (layer_norm): T5LayerNorm()\n            (dropout): Dropout(p=0.1, inplace=False)\n          )\n        )\n      )\n      (11): T5Block(\n        (layer): ModuleList(\n          (0): T5LayerSelfAttention(\n            (SelfAttention): T5Attention(\n              (q): Linear(in_features=1024, out_features=4096, bias=False)\n              (k): Linear(in_features=1024, out_features=4096, bias=False)\n              (v): Linear(in_features=1024, out_features=4096, bias=False)\n              (o): Linear(in_features=4096, out_features=1024, bias=False)\n            )\n            (layer_norm): T5LayerNorm()\n            (dropout): Dropout(p=0.1, inplace=False)\n          )\n          (1): T5LayerCrossAttention(\n            (EncDecAttention): T5Attention(\n              (q): Linear(in_features=1024, out_features=4096, bias=False)\n              (k): Linear(in_features=1024, out_features=4096, bias=False)\n              (v): Linear(in_features=1024, out_features=4096, bias=False)\n              (o): Linear(in_features=4096, out_features=1024, bias=False)\n            )\n            (layer_norm): T5LayerNorm()\n            (dropout): Dropout(p=0.1, inplace=False)\n          )\n          (2): T5LayerFF(\n            (DenseReluDense): T5DenseActDense(\n              (wi): Linear(in_features=1024, out_features=16384, bias=False)\n              (wo): Linear(in_features=16384, out_features=1024, bias=False)\n              (dropout): Dropout(p=0.1, inplace=False)\n              (act): ReLU()\n            )\n            (layer_norm): T5LayerNorm()\n            (dropout): Dropout(p=0.1, inplace=False)\n          )\n        )\n      )\n      (12): T5Block(\n        (layer): ModuleList(\n          (0): T5LayerSelfAttention(\n            (SelfAttention): T5Attention(\n              (q): Linear(in_features=1024, out_features=4096, bias=False)\n              (k): Linear(in_features=1024, out_features=4096, bias=False)\n              (v): Linear(in_features=1024, out_features=4096, bias=False)\n              (o): Linear(in_features=4096, out_features=1024, bias=False)\n            )\n            (layer_norm): T5LayerNorm()\n            (dropout): Dropout(p=0.1, inplace=False)\n          )\n          (1): T5LayerCrossAttention(\n            (EncDecAttention): T5Attention(\n              (q): Linear(in_features=1024, out_features=4096, bias=False)\n              (k): Linear(in_features=1024, out_features=4096, bias=False)\n              (v): Linear(in_features=1024, out_features=4096, bias=False)\n              (o): Linear(in_features=4096, out_features=1024, bias=False)\n            )\n            (layer_norm): T5LayerNorm()\n            (dropout): Dropout(p=0.1, inplace=False)\n          )\n          (2): T5LayerFF(\n            (DenseReluDense): T5DenseActDense(\n              (wi): Linear(in_features=1024, out_features=16384, bias=False)\n              (wo): Linear(in_features=16384, out_features=1024, bias=False)\n              (dropout): Dropout(p=0.1, inplace=False)\n              (act): ReLU()\n            )\n            (layer_norm): T5LayerNorm()\n            (dropout): Dropout(p=0.1, inplace=False)\n          )\n        )\n      )\n      (13): T5Block(\n        (layer): ModuleList(\n          (0): T5LayerSelfAttention(\n            (SelfAttention): T5Attention(\n              (q): Linear(in_features=1024, out_features=4096, bias=False)\n              (k): Linear(in_features=1024, out_features=4096, bias=False)\n              (v): Linear(in_features=1024, out_features=4096, bias=False)\n              (o): Linear(in_features=4096, out_features=1024, bias=False)\n            )\n            (layer_norm): T5LayerNorm()\n            (dropout): Dropout(p=0.1, inplace=False)\n          )\n          (1): T5LayerCrossAttention(\n            (EncDecAttention): T5Attention(\n              (q): Linear(in_features=1024, out_features=4096, bias=False)\n              (k): Linear(in_features=1024, out_features=4096, bias=False)\n              (v): Linear(in_features=1024, out_features=4096, bias=False)\n              (o): Linear(in_features=4096, out_features=1024, bias=False)\n            )\n            (layer_norm): T5LayerNorm()\n            (dropout): Dropout(p=0.1, inplace=False)\n          )\n          (2): T5LayerFF(\n            (DenseReluDense): T5DenseActDense(\n              (wi): Linear(in_features=1024, out_features=16384, bias=False)\n              (wo): Linear(in_features=16384, out_features=1024, bias=False)\n              (dropout): Dropout(p=0.1, inplace=False)\n              (act): ReLU()\n            )\n            (layer_norm): T5LayerNorm()\n            (dropout): Dropout(p=0.1, inplace=False)\n          )\n        )\n      )\n      (14): T5Block(\n        (layer): ModuleList(\n          (0): T5LayerSelfAttention(\n            (SelfAttention): T5Attention(\n              (q): Linear(in_features=1024, out_features=4096, bias=False)\n              (k): Linear(in_features=1024, out_features=4096, bias=False)\n              (v): Linear(in_features=1024, out_features=4096, bias=False)\n              (o): Linear(in_features=4096, out_features=1024, bias=False)\n            )\n            (layer_norm): T5LayerNorm()\n            (dropout): Dropout(p=0.1, inplace=False)\n          )\n          (1): T5LayerCrossAttention(\n            (EncDecAttention): T5Attention(\n              (q): Linear(in_features=1024, out_features=4096, bias=False)\n              (k): Linear(in_features=1024, out_features=4096, bias=False)\n              (v): Linear(in_features=1024, out_features=4096, bias=False)\n              (o): Linear(in_features=4096, out_features=1024, bias=False)\n            )\n            (layer_norm): T5LayerNorm()\n            (dropout): Dropout(p=0.1, inplace=False)\n          )\n          (2): T5LayerFF(\n            (DenseReluDense): T5DenseActDense(\n              (wi): Linear(in_features=1024, out_features=16384, bias=False)\n              (wo): Linear(in_features=16384, out_features=1024, bias=False)\n              (dropout): Dropout(p=0.1, inplace=False)\n              (act): ReLU()\n            )\n            (layer_norm): T5LayerNorm()\n            (dropout): Dropout(p=0.1, inplace=False)\n          )\n        )\n      )\n      (15): T5Block(\n        (layer): ModuleList(\n          (0): T5LayerSelfAttention(\n            (SelfAttention): T5Attention(\n              (q): Linear(in_features=1024, out_features=4096, bias=False)\n              (k): Linear(in_features=1024, out_features=4096, bias=False)\n              (v): Linear(in_features=1024, out_features=4096, bias=False)\n              (o): Linear(in_features=4096, out_features=1024, bias=False)\n            )\n            (layer_norm): T5LayerNorm()\n            (dropout): Dropout(p=0.1, inplace=False)\n          )\n          (1): T5LayerCrossAttention(\n            (EncDecAttention): T5Attention(\n              (q): Linear(in_features=1024, out_features=4096, bias=False)\n              (k): Linear(in_features=1024, out_features=4096, bias=False)\n              (v): Linear(in_features=1024, out_features=4096, bias=False)\n              (o): Linear(in_features=4096, out_features=1024, bias=False)\n            )\n            (layer_norm): T5LayerNorm()\n            (dropout): Dropout(p=0.1, inplace=False)\n          )\n          (2): T5LayerFF(\n            (DenseReluDense): T5DenseActDense(\n              (wi): Linear(in_features=1024, out_features=16384, bias=False)\n              (wo): Linear(in_features=16384, out_features=1024, bias=False)\n              (dropout): Dropout(p=0.1, inplace=False)\n              (act): ReLU()\n            )\n            (layer_norm): T5LayerNorm()\n            (dropout): Dropout(p=0.1, inplace=False)\n          )\n        )\n      )\n      (16): T5Block(\n        (layer): ModuleList(\n          (0): T5LayerSelfAttention(\n            (SelfAttention): T5Attention(\n              (q): Linear(in_features=1024, out_features=4096, bias=False)\n              (k): Linear(in_features=1024, out_features=4096, bias=False)\n              (v): Linear(in_features=1024, out_features=4096, bias=False)\n              (o): Linear(in_features=4096, out_features=1024, bias=False)\n            )\n            (layer_norm): T5LayerNorm()\n            (dropout): Dropout(p=0.1, inplace=False)\n          )\n          (1): T5LayerCrossAttention(\n            (EncDecAttention): T5Attention(\n              (q): Linear(in_features=1024, out_features=4096, bias=False)\n              (k): Linear(in_features=1024, out_features=4096, bias=False)\n              (v): Linear(in_features=1024, out_features=4096, bias=False)\n              (o): Linear(in_features=4096, out_features=1024, bias=False)\n            )\n            (layer_norm): T5LayerNorm()\n            (dropout): Dropout(p=0.1, inplace=False)\n          )\n          (2): T5LayerFF(\n            (DenseReluDense): T5DenseActDense(\n              (wi): Linear(in_features=1024, out_features=16384, bias=False)\n              (wo): Linear(in_features=16384, out_features=1024, bias=False)\n              (dropout): Dropout(p=0.1, inplace=False)\n              (act): ReLU()\n            )\n            (layer_norm): T5LayerNorm()\n            (dropout): Dropout(p=0.1, inplace=False)\n          )\n        )\n      )\n      (17): T5Block(\n        (layer): ModuleList(\n          (0): T5LayerSelfAttention(\n            (SelfAttention): T5Attention(\n              (q): Linear(in_features=1024, out_features=4096, bias=False)\n              (k): Linear(in_features=1024, out_features=4096, bias=False)\n              (v): Linear(in_features=1024, out_features=4096, bias=False)\n              (o): Linear(in_features=4096, out_features=1024, bias=False)\n            )\n            (layer_norm): T5LayerNorm()\n            (dropout): Dropout(p=0.1, inplace=False)\n          )\n          (1): T5LayerCrossAttention(\n            (EncDecAttention): T5Attention(\n              (q): Linear(in_features=1024, out_features=4096, bias=False)\n              (k): Linear(in_features=1024, out_features=4096, bias=False)\n              (v): Linear(in_features=1024, out_features=4096, bias=False)\n              (o): Linear(in_features=4096, out_features=1024, bias=False)\n            )\n            (layer_norm): T5LayerNorm()\n            (dropout): Dropout(p=0.1, inplace=False)\n          )\n          (2): T5LayerFF(\n            (DenseReluDense): T5DenseActDense(\n              (wi): Linear(in_features=1024, out_features=16384, bias=False)\n              (wo): Linear(in_features=16384, out_features=1024, bias=False)\n              (dropout): Dropout(p=0.1, inplace=False)\n              (act): ReLU()\n            )\n            (layer_norm): T5LayerNorm()\n            (dropout): Dropout(p=0.1, inplace=False)\n          )\n        )\n      )\n      (18): T5Block(\n        (layer): ModuleList(\n          (0): T5LayerSelfAttention(\n            (SelfAttention): T5Attention(\n              (q): Linear(in_features=1024, out_features=4096, bias=False)\n              (k): Linear(in_features=1024, out_features=4096, bias=False)\n              (v): Linear(in_features=1024, out_features=4096, bias=False)\n              (o): Linear(in_features=4096, out_features=1024, bias=False)\n            )\n            (layer_norm): T5LayerNorm()\n            (dropout): Dropout(p=0.1, inplace=False)\n          )\n          (1): T5LayerCrossAttention(\n            (EncDecAttention): T5Attention(\n              (q): Linear(in_features=1024, out_features=4096, bias=False)\n              (k): Linear(in_features=1024, out_features=4096, bias=False)\n              (v): Linear(in_features=1024, out_features=4096, bias=False)\n              (o): Linear(in_features=4096, out_features=1024, bias=False)\n            )\n            (layer_norm): T5LayerNorm()\n            (dropout): Dropout(p=0.1, inplace=False)\n          )\n          (2): T5LayerFF(\n            (DenseReluDense): T5DenseActDense(\n              (wi): Linear(in_features=1024, out_features=16384, bias=False)\n              (wo): Linear(in_features=16384, out_features=1024, bias=False)\n              (dropout): Dropout(p=0.1, inplace=False)\n              (act): ReLU()\n            )\n            (layer_norm): T5LayerNorm()\n            (dropout): Dropout(p=0.1, inplace=False)\n          )\n        )\n      )\n      (19): T5Block(\n        (layer): ModuleList(\n          (0): T5LayerSelfAttention(\n            (SelfAttention): T5Attention(\n              (q): Linear(in_features=1024, out_features=4096, bias=False)\n              (k): Linear(in_features=1024, out_features=4096, bias=False)\n              (v): Linear(in_features=1024, out_features=4096, bias=False)\n              (o): Linear(in_features=4096, out_features=1024, bias=False)\n            )\n            (layer_norm): T5LayerNorm()\n            (dropout): Dropout(p=0.1, inplace=False)\n          )\n          (1): T5LayerCrossAttention(\n            (EncDecAttention): T5Attention(\n              (q): Linear(in_features=1024, out_features=4096, bias=False)\n              (k): Linear(in_features=1024, out_features=4096, bias=False)\n              (v): Linear(in_features=1024, out_features=4096, bias=False)\n              (o): Linear(in_features=4096, out_features=1024, bias=False)\n            )\n            (layer_norm): T5LayerNorm()\n            (dropout): Dropout(p=0.1, inplace=False)\n          )\n          (2): T5LayerFF(\n            (DenseReluDense): T5DenseActDense(\n              (wi): Linear(in_features=1024, out_features=16384, bias=False)\n              (wo): Linear(in_features=16384, out_features=1024, bias=False)\n              (dropout): Dropout(p=0.1, inplace=False)\n              (act): ReLU()\n            )\n            (layer_norm): T5LayerNorm()\n            (dropout): Dropout(p=0.1, inplace=False)\n          )\n        )\n      )\n      (20): T5Block(\n        (layer): ModuleList(\n          (0): T5LayerSelfAttention(\n            (SelfAttention): T5Attention(\n              (q): Linear(in_features=1024, out_features=4096, bias=False)\n              (k): Linear(in_features=1024, out_features=4096, bias=False)\n              (v): Linear(in_features=1024, out_features=4096, bias=False)\n              (o): Linear(in_features=4096, out_features=1024, bias=False)\n            )\n            (layer_norm): T5LayerNorm()\n            (dropout): Dropout(p=0.1, inplace=False)\n          )\n          (1): T5LayerCrossAttention(\n            (EncDecAttention): T5Attention(\n              (q): Linear(in_features=1024, out_features=4096, bias=False)\n              (k): Linear(in_features=1024, out_features=4096, bias=False)\n              (v): Linear(in_features=1024, out_features=4096, bias=False)\n              (o): Linear(in_features=4096, out_features=1024, bias=False)\n            )\n            (layer_norm): T5LayerNorm()\n            (dropout): Dropout(p=0.1, inplace=False)\n          )\n          (2): T5LayerFF(\n            (DenseReluDense): T5DenseActDense(\n              (wi): Linear(in_features=1024, out_features=16384, bias=False)\n              (wo): Linear(in_features=16384, out_features=1024, bias=False)\n              (dropout): Dropout(p=0.1, inplace=False)\n              (act): ReLU()\n            )\n            (layer_norm): T5LayerNorm()\n            (dropout): Dropout(p=0.1, inplace=False)\n          )\n        )\n      )\n      (21): T5Block(\n        (layer): ModuleList(\n          (0): T5LayerSelfAttention(\n            (SelfAttention): T5Attention(\n              (q): Linear(in_features=1024, out_features=4096, bias=False)\n              (k): Linear(in_features=1024, out_features=4096, bias=False)\n              (v): Linear(in_features=1024, out_features=4096, bias=False)\n              (o): Linear(in_features=4096, out_features=1024, bias=False)\n            )\n            (layer_norm): T5LayerNorm()\n            (dropout): Dropout(p=0.1, inplace=False)\n          )\n          (1): T5LayerCrossAttention(\n            (EncDecAttention): T5Attention(\n              (q): Linear(in_features=1024, out_features=4096, bias=False)\n              (k): Linear(in_features=1024, out_features=4096, bias=False)\n              (v): Linear(in_features=1024, out_features=4096, bias=False)\n              (o): Linear(in_features=4096, out_features=1024, bias=False)\n            )\n            (layer_norm): T5LayerNorm()\n            (dropout): Dropout(p=0.1, inplace=False)\n          )\n          (2): T5LayerFF(\n            (DenseReluDense): T5DenseActDense(\n              (wi): Linear(in_features=1024, out_features=16384, bias=False)\n              (wo): Linear(in_features=16384, out_features=1024, bias=False)\n              (dropout): Dropout(p=0.1, inplace=False)\n              (act): ReLU()\n            )\n            (layer_norm): T5LayerNorm()\n            (dropout): Dropout(p=0.1, inplace=False)\n          )\n        )\n      )\n      (22): T5Block(\n        (layer): ModuleList(\n          (0): T5LayerSelfAttention(\n            (SelfAttention): T5Attention(\n              (q): Linear(in_features=1024, out_features=4096, bias=False)\n              (k): Linear(in_features=1024, out_features=4096, bias=False)\n              (v): Linear(in_features=1024, out_features=4096, bias=False)\n              (o): Linear(in_features=4096, out_features=1024, bias=False)\n            )\n            (layer_norm): T5LayerNorm()\n            (dropout): Dropout(p=0.1, inplace=False)\n          )\n          (1): T5LayerCrossAttention(\n            (EncDecAttention): T5Attention(\n              (q): Linear(in_features=1024, out_features=4096, bias=False)\n              (k): Linear(in_features=1024, out_features=4096, bias=False)\n              (v): Linear(in_features=1024, out_features=4096, bias=False)\n              (o): Linear(in_features=4096, out_features=1024, bias=False)\n            )\n            (layer_norm): T5LayerNorm()\n            (dropout): Dropout(p=0.1, inplace=False)\n          )\n          (2): T5LayerFF(\n            (DenseReluDense): T5DenseActDense(\n              (wi): Linear(in_features=1024, out_features=16384, bias=False)\n              (wo): Linear(in_features=16384, out_features=1024, bias=False)\n              (dropout): Dropout(p=0.1, inplace=False)\n              (act): ReLU()\n            )\n            (layer_norm): T5LayerNorm()\n            (dropout): Dropout(p=0.1, inplace=False)\n          )\n        )\n      )\n      (23): T5Block(\n        (layer): ModuleList(\n          (0): T5LayerSelfAttention(\n            (SelfAttention): T5Attention(\n              (q): Linear(in_features=1024, out_features=4096, bias=False)\n              (k): Linear(in_features=1024, out_features=4096, bias=False)\n              (v): Linear(in_features=1024, out_features=4096, bias=False)\n              (o): Linear(in_features=4096, out_features=1024, bias=False)\n            )\n            (layer_norm): T5LayerNorm()\n            (dropout): Dropout(p=0.1, inplace=False)\n          )\n          (1): T5LayerCrossAttention(\n            (EncDecAttention): T5Attention(\n              (q): Linear(in_features=1024, out_features=4096, bias=False)\n              (k): Linear(in_features=1024, out_features=4096, bias=False)\n              (v): Linear(in_features=1024, out_features=4096, bias=False)\n              (o): Linear(in_features=4096, out_features=1024, bias=False)\n            )\n            (layer_norm): T5LayerNorm()\n            (dropout): Dropout(p=0.1, inplace=False)\n          )\n          (2): T5LayerFF(\n            (DenseReluDense): T5DenseActDense(\n              (wi): Linear(in_features=1024, out_features=16384, bias=False)\n              (wo): Linear(in_features=16384, out_features=1024, bias=False)\n              (dropout): Dropout(p=0.1, inplace=False)\n              (act): ReLU()\n            )\n            (layer_norm): T5LayerNorm()\n            (dropout): Dropout(p=0.1, inplace=False)\n          )\n        )\n      )\n    )\n    (final_layer_norm): T5LayerNorm()\n    (dropout): Dropout(p=0.1, inplace=False)\n  )\n)\n\n\n\ndef T5_bfd_embe
…
